
PFBO(
  (loss_func): MSELoss()
  (H_E): NICE(
    (loss_func): MSELoss()
    (layers): ModuleList(
      (0): AdditiveCouplingLayer(
        (loss_func): MSELoss()
        (net): Sequential(
          (0): Dropout(p=0.0173, inplace=False)
          (1): Linear(in_features=260, out_features=260, bias=True)
          (2): Gaussian()
          (3): Dropout(p=0.0173, inplace=False)
          (4): Linear(in_features=260, out_features=260, bias=True)
          (5): Affine()
        )
      )
      (1): AdditiveCouplingLayer(
        (loss_func): MSELoss()
        (net): Sequential(
          (0): Dropout(p=0.0173, inplace=False)
          (1): Linear(in_features=260, out_features=260, bias=True)
          (2): Sigmoid()
          (3): Dropout(p=0.0173, inplace=False)
          (4): Linear(in_features=260, out_features=260, bias=True)
          (5): Affine()
        )
      )
      (2): AdditiveCouplingLayer(
        (loss_func): MSELoss()
        (net): Sequential(
          (0): Dropout(p=0.0173, inplace=False)
          (1): Linear(in_features=260, out_features=260, bias=True)
          (2): Gaussian()
          (3): Dropout(p=0.0173, inplace=False)
          (4): Linear(in_features=260, out_features=260, bias=True)
          (5): Affine()
        )
      )
    )
  )
  (H_P): NICE(
    (loss_func): MSELoss()
    (layers): ModuleList(
      (0): AdditiveCouplingLayer(
        (loss_func): MSELoss()
        (net): Sequential(
          (0): Dropout(p=0.0143, inplace=False)
          (1): Linear(in_features=215, out_features=215, bias=True)
          (2): Gaussian()
          (3): Dropout(p=0.0143, inplace=False)
          (4): Linear(in_features=215, out_features=215, bias=True)
          (5): Affine()
        )
      )
      (1-2): 2 x AdditiveCouplingLayer(
        (loss_func): MSELoss()
        (net): Sequential(
          (0): Dropout(p=0.0143, inplace=False)
          (1): Linear(in_features=215, out_features=215, bias=True)
          (2): Affine()
          (3): Dropout(p=0.0143, inplace=False)
          (4): Linear(in_features=215, out_features=215, bias=True)
          (5): Affine()
        )
      )
    )
  )
)

run paras: {'run_times': 1, 'multirun_seed': 'r*2', '_run_id': '', 'e': 24, 'load_para_type': None, 'load_sub': None, 'load_file_name': None, 'load_path_replace': None, 'view_addi_info': ['forward_loss', 'reverse_loss', 'he_w_inv_loss', 'hp_w_inv_loss', 'loss'], 'if_log': True, 'if_epoch_ev
…
